hw1/weight.npy (npy, 1432 bytes, 1 tensors)

array f8 [163]
0.0020147827826785566 0.001577964194734116 0.0007024473018063822 -0.0012499277092074422 -0.002204521481058586 -0.003597007220864262 -0.005993088490074376 -0.007491569105600679
-0.002720496202530436 0.015039619252578896 0.015373822997229291 0.015670567769971496 0.014687254036581858 0.015373086157751818 0.014244054830309646 0.013444885831244941
0.014695684465037799 0.01975288257853471 0.03126834925695216 0.02790729082403145 0.022017834492459153 0.005796492976536479 0.007864051063470651 0.013791413945207198
0.02467648005892792 0.051710886481613504 0.12600199739035528 -0.024911559950652 -0.0023711146964158314 -0.02939275230489414 -0.03654054257562483 -0.03226150764258472
-0.01613975862071969 0.018584136875616896 0.08386493713657368 -0.003930934309334654 0.00019879929317994285 -0.002258948207572769 0.009037229686993433 -0.0037525405406986603
0.012279392517917681 0.004046762729245702 -0.008261425028624474 -0.018053213469159664 -0.016321798698877746 0.01177356122813195 0.004738549820212883 -0.002384322087522524
-0.012882919376837443 -0.01761263077473917 -0.022515284736593384 -0.017418160476276767 0.005040874888889052 0.07704123131699923 0.008890870427414975 0.0030064184080369613
0.0006223510572057154 -0.010859909053794223 -0.010176478891692622 -0.016079638456260738 -0.015311802484915272 -0.00035168914412579103 0.05436316301409271 6.994241643218499e-05
0.0020387141216213715 -0.0006449448078926334 -0.0030312104310276696 -0.01415123473223647 -0.018103144206792703 -0.013286172767044578 0.007634126707928286 0.05504054290919622
-0.013201561717546715 -0.01838605129412581 -0.013498631322901007 -0.01844245398585644 -0.01787856023864858 -0.01628916357566157 -0.009663457373152004 0.019253715265117925
0.1113340185155411 0.03559824063695122 0.033999622147446784 0.03468435470751007 0.03596775699595736 0.043826027383395756 0.05913293470291672 0.07885300186705924
0.18198872679992442 0.35521431371976636 0.03209461951914715 -0.03234676064649657 -0.01201125475351235 -0.02220385689568495 -0.002966269185833551 0.00852996494881428
-0.00806081961511782 -0.029232588654640543 -0.11216870288158406 -0.0007337059048625114 -0.0014352176566391878 -6.991783813688971e-05 0.0015231028045340042 0.0026427048708394948
0.0015845985487093883 0.0007926097139643052 -0.001955391830488888 -0.0035208687354122887 -0.011385598599189656 -0.013076754062365928 -0.014538273884563373 -0.01118985356822305
-0.010701082458343277 -0.02071277406528032 -0.023922560233789393 -0.004271375711988408 0.07251789488936915 0.01212694779738082 0.014231224966256978 0.011920495747831652
0.010807338939256873 0.01148700534714453 0.012094090202807594 0.014920769420776367 0.020978828860748547 0.018209734811159423 -0.0004018901853346152 0.000661312123367388
0.000352864900934576 0.00034504032168460383 -0.0014789102601941843 -0.0024891669392168407 0.001388028903276064 0.0012115252650585179 0.0036278081999395564 0.0006830151113481135
-0.00030531519400538274 -0.00030077424658968294 -2.088287076396813e-05 0.0020801897357068276 -0.0014654454704867864 -0.0015141108461753352 -0.0013210892183297958 0.0036439486427774534
-0.0023713109962633025 0.001245877601458524 0.0060707969951970765 0.010327931742918463 0.003792928205712079 -0.0019094847641748464 -0.0018804580246317027 -0.021802134214598257
-0.03777753635684173 0.0007066600990450638 0.004168932324325029 0.0076388425331115626 0.012321501674534144 0.010011630552454761 -0.00042870071684964796 -0.003895299463403446
-0.01330367239688478 -0.04215613859208256 0.010402137064823512
00000000: 47ef 1f45 4e81 603f 33c2 1427 76da 593f
00000010: 1135 1e18 8e04 473f c7ca 89a8 937a 54bf
00000020: 6763 4375 370f 62bf 8c1a 118c 7877 6dbf
00000030: 5e09 1271 358c 78bf 8a53 dec4 7aaf 7ebf
00000040: d815 0047 4b49 66bf 3a46 ac86 17cd 8e3f
00000050: e696 e697 4f7c 8f3f efbd 5300 f20b 903f
00000060: ef92 0ade 5914 8e3f cf00 4ab2 ec7b 8f3f
00000070: b8d5 44ad fc2b 8d3f ca98 8c07 fe88 8b3f
00000080: 4f7d 5b61 c518 8e3f 85c5 b482 193a 943f
00000090: 89c2 eab2 6702 a03f 06ff a295 ba93 9c3f
000000a0: 13a0 4bdc d78b 963f 6261 403c 10be 773f
000000b0: 7dae 0d11 071b 803f b3d1 e13e ac3e 8c3f
000000c0: d07e 558b ca44 993f 1347 926c d979 aa3f
000000d0: 32d9 025d d520 c03f 881f 1f7d 6a82 99bf
000000e0: 17fe 6f82 966c 63bf a248 8e37 2219 9ebf
000000f0: 7749 ae26 71b5 a2bf 5f36 7d90 9484 a0bf
00000100: bdea c3dd f086 90bf a3af 6b50 b807 933f
00000110: b55d 482a 2c78 b53f 7231 d224 e219 70bf
00000120: add6 e3ec 980e 2a3f f2a3 9895 5b81 62bf
00000130: 9bda 9d6f 1c82 823f 555e c6dc a5bd 6ebf
00000140: 10cf 3b2a f025 893f c17f 3a99 5693 703f
00000150: 3cc7 87b2 5deb 80bf df40 c0a5 8a7c 92bf
00000160: 848a 7e5e a9b6 90bf 624f 75a3 bc1c 883f
00000170: 45eb 21c8 ba68 733f 5d03 732c 4988 63bf
00000180: a044 342b 5c62 8abf 5d34 b2a4 0b09 92bf
00000190: a549 6a2e 3f0e 97bf e389 68f6 10d6 91bf
000001a0: 06f6 a78c bda5 743f 9f38 f360 f9b8 b33f
000001b0: b9f0 bf6d 6035 823f 1e16 b397 eaa0 683f
000001c0: 5a6a fab7 a864 443f 92e4 c951 b83d 86bf
000001d0: 4edd 39e0 67d7 84bf 0a5f 3445 2e77 90bf
000001e0: 87fd 5257 cb5b 8fbf 9432 545f 5d0c 37bf
000001f0: af5a 810e 7dd5 ab3f 5858 9190 c155 123f
00000200: f4e1 4d4f 7eb3 603f 669e c66d 3022 45bf
00000210: 8cd3 64b5 e8d4 68bf 4bda fb92 52fb 8cbf
00000220: 7eb2 4a71 a189 92bf ff0c 30ec c735 8bbf
00000230: fb84 b448 f644 7f3f bd87 7f27 462e ac3f
00000240: fff5 a99e 6b09 8bbf f51b 0b04 cbd3 92bf
00000250: 57ba 94a0 2ba5 8bbf 25b1 e822 94e2 92bf
00000260: ad26 19de c14e 92bf a0bd 5843 1bae 90bf
00000270: 0563 124b 6fca 83bf ae8a 8ff5 3eb7 933f
00000280: addd 74e0 6280 bc3f 5864 a9be ee39 a23f
00000290: 6037 6602 6668 a13f 0fa1 4dd2 25c2 a13f
000002a0: 4427 04a8 5d6a a23f c98b a674 5d70 a63f
000002b0: 74c0 5409 ac46 ae3f d0df 35d8 b52f b43f
000002c0: 5555 ec16 684b c73f b9d6 1fd1 d4bb d63f
000002d0: 9eb2 6cba b46e a03f 926b 372e c18f a0bf
000002e0: 2955 cd52 5b99 88bf a41e d99c 9bbc 96bf
000002f0: 2101 9ea4 b74c 68bf b1f1 ed83 2878 813f
00000300: b3d0 01e5 3082 80bf 8914 ffd0 25ef 9dbf
00000310: 5eda 828e 16b7 bcbf b6d2 e16e c50a 48bf
00000320: 364f 7739 bd83 57bf 38f6 1450 1b54 12bf
00000330: 3289 f82e 5bf4 583f e395 c85f 27a6 653f
00000340: b86d 6abc 49f6 593f 0b5f 6566 e4f8 493f
00000350: 2362 cffe c004 60bf 6dae 4e02 ccd7 6cbf
00000360: 4afe 072d 5551 87bf 681b 4938 fcc7 8abf
00000370: e9f4 fe16 3ec6 8dbf dff9 fab8 b4ea 86bf
00000380: dee7 85f9 72ea 85bf 6e17 e1bc ba35 95bf
00000390: 8ae4 5cd7 277f 98bf 62e6 deaf dc7e 71bf
000003a0: fbb2 ec62 8890 b23f dc38 8561 03d6 883f
000003b0: 502a 7fae 4225 8d3f 1bc3 1cdb c569 883f
000003c0: f43b 687a 2822 863f 8015 5cc2 7f86 873f
000003d0: b9de 2a4f c9c4 883f c510 8cc5 c78e 8e3f
000003e0: 2410 765f 797b 953f 4859 ee9d 92a5 923f
000003f0: 524d dd33 9956 3abf aea7 9df8 7cab 453f
00000400: 5691 9c35 1720 373f 3f69 bee5 d09c 363f
00000410: ba53 e1cc ff3a 58bf d89f 2453 2964 64bf
00000420: 3ed6 b5af d0bd 563f eead 1159 81d9 533f
00000430: d596 65b2 10b8 6d3f 41de 6fc8 8b61 463f
00000440: 1413 f2c5 5602 34bf 01ff 758d 27b6 33bf
00000450: 7908 9ff3 b3e5 f5be 667a 4c5c 790a 613f
00000460: 4a00 ab17 8602 58bf 7723 4724 a4ce 58bf
00000470: fe84 38bf 0ca5 55bf 8713 f807 ead9 6d3f
00000480: f0dd aee5 ff6c 63bf 6db7 65e3 9669 543f
00000490: 7b63 e128 b1dd 783f c1b9 9188 cf26 853f
000004a0: edff 2fd3 5812 6f3f e95d 51a7 f548 5fbf
000004b0: c824 e86d 36cf 5ebf 9022 bd75 4c53 96bf
000004c0: f927 5ac6 9357 a3bf 9487 e401 e527 473f
000004d0: 041b e03f 7113 713f 217f be2d e849 7f3f
000004e0: 757e d6f5 033c 893f 2b5f 6b4e fa80 843f
000004f0: a018 038f 6718 3cbf 81d0 b5f9 08e9 6fbf
00000500: b9fa e3ae f43e 8bbf 4043 2849 7d95 a5bf
00000510: fff1 0334 b74d 853f
